{"keras_version": "2.2.4", "config": {"name": "model_12", "input_layers": [["input_one", 0, 0]], "output_layers": [["output_mask", 0, 0]], "layers": [{"name": "input_one", "inbound_nodes": [], "config": {"name": "input_one", "sparse": false, "dtype": "float32", "batch_input_shape": [null, 256, 256, 3]}, "class_name": "InputLayer"}, {"name": "conv2d_155", "inbound_nodes": [[["input_one", 0, 0, {}]]], "config": {"dilation_rate": [1, 1], "filters": 32, "activity_regularizer": null, "kernel_size": [3, 3], "activation": "linear", "bias_initializer": {"config": {}, "class_name": "Zeros"}, "data_format": "channels_last", "bias_regularizer": null, "kernel_regularizer": null, "kernel_initializer": {"config": {"seed": null, "scale": 2.0, "mode": "fan_in", "distribution": "normal"}, "class_name": "VarianceScaling"}, "padding": "same", "use_bias": true, "bias_constraint": null, "name": "conv2d_155", "trainable": true, "kernel_constraint": null, "strides": [1, 1]}, "class_name": "Conv2D"}, {"name": "batch_normalization_155", "inbound_nodes": [[["conv2d_155", 0, 0, {}]]], "config": {"axis": -1, "epsilon": 0.001, "gamma_initializer": {"config": {}, "class_name": "Ones"}, "center": true, "scale": true, "moving_mean_initializer": {"config": {}, "class_name": "Zeros"}, "beta_regularizer": null, "gamma_constraint": null, "momentum": 0.99, "name": "batch_normalization_155", "trainable": true, "moving_variance_initializer": {"config": {}, "class_name": "Ones"}, "beta_constraint": null, "gamma_regularizer": null, "beta_initializer": {"config": {}, "class_name": "Zeros"}}, "class_name": "BatchNormalization"}, {"name": "activation_155", "inbound_nodes": [[["batch_normalization_155", 0, 0, {}]]], "config": {"name": "activation_155", "trainable": true, "activation": "relu"}, "class_name": "Activation"}, {"name": "conv2d_156", "inbound_nodes": [[["activation_155", 0, 0, {}]]], "config": {"dilation_rate": [1, 1], "filters": 32, "activity_regularizer": null, "kernel_size": [3, 3], "activation": "linear", "bias_initializer": {"config": {}, "class_name": "Zeros"}, "data_format": "channels_last", "bias_regularizer": null, "kernel_regularizer": null, "kernel_initializer": {"config": {"seed": null, "scale": 2.0, "mode": "fan_in", "distribution": "normal"}, "class_name": "VarianceScaling"}, "padding": "same", "use_bias": true, "bias_constraint": null, "name": "conv2d_156", "trainable": true, "kernel_constraint": null, "strides": [1, 1]}, "class_name": "Conv2D"}, {"name": "batch_normalization_156", "inbound_nodes": [[["conv2d_156", 0, 0, {}]]], "config": {"axis": -1, "epsilon": 0.001, "gamma_initializer": {"config": {}, "class_name": "Ones"}, "center": true, "scale": true, "moving_mean_initializer": {"config": {}, "class_name": "Zeros"}, "beta_regularizer": null, "gamma_constraint": null, "momentum": 0.99, "name": "batch_normalization_156", "trainable": true, "moving_variance_initializer": {"config": {}, "class_name": "Ones"}, "beta_constraint": null, "gamma_regularizer": null, "beta_initializer": {"config": {}, "class_name": "Zeros"}}, "class_name": "BatchNormalization"}, {"name": "activation_156", "inbound_nodes": [[["batch_normalization_156", 0, 0, {}]]], "config": {"name": "activation_156", "trainable": true, "activation": "relu"}, "class_name": "Activation"}, {"name": "max_pooling2d_34", "inbound_nodes": [[["activation_156", 0, 0, {}]]], "config": {"pool_size": [2, 2], "name": "max_pooling2d_34", "data_format": "channels_last", "trainable": true, "padding": "valid", "strides": [2, 2]}, "class_name": "MaxPooling2D"}, {"name": "conv2d_157", "inbound_nodes": [[["max_pooling2d_34", 0, 0, {}]]], "config": {"dilation_rate": [1, 1], "filters": 64, "activity_regularizer": null, "kernel_size": [3, 3], "activation": "linear", "bias_initializer": {"config": {}, "class_name": "Zeros"}, "data_format": "channels_last", "bias_regularizer": null, "kernel_regularizer": null, "kernel_initializer": {"config": {"seed": null, "scale": 2.0, "mode": "fan_in", "distribution": "normal"}, "class_name": "VarianceScaling"}, "padding": "same", "use_bias": true, "bias_constraint": null, "name": "conv2d_157", "trainable": true, "kernel_constraint": null, "strides": [1, 1]}, "class_name": "Conv2D"}, {"name": "batch_normalization_157", "inbound_nodes": [[["conv2d_157", 0, 0, {}]]], "config": {"axis": -1, "epsilon": 0.001, "gamma_initializer": {"config": {}, "class_name": "Ones"}, "center": true, "scale": true, "moving_mean_initializer": {"config": {}, "class_name": "Zeros"}, "beta_regularizer": null, "gamma_constraint": null, "momentum": 0.99, "name": "batch_normalization_157", "trainable": true, "moving_variance_initializer": {"config": {}, "class_name": "Ones"}, "beta_constraint": null, "gamma_regularizer": null, "beta_initializer": {"config": {}, "class_name": "Zeros"}}, "class_name": "BatchNormalization"}, {"name": "activation_157", "inbound_nodes": [[["batch_normalization_157", 0, 0, {}]]], "config": {"name": "activation_157", "trainable": true, "activation": "relu"}, "class_name": "Activation"}, {"name": "conv2d_158", "inbound_nodes": [[["activation_157", 0, 0, {}]]], "config": {"dilation_rate": [1, 1], "filters": 64, "activity_regularizer": null, "kernel_size": [3, 3], "activation": "linear", "bias_initializer": {"config": {}, "class_name": "Zeros"}, "data_format": "channels_last", "bias_regularizer": null, "kernel_regularizer": null, "kernel_initializer": {"config": {"seed": null, "scale": 2.0, "mode": "fan_in", "distribution": "normal"}, "class_name": "VarianceScaling"}, "padding": "same", "use_bias": true, "bias_constraint": null, "name": "conv2d_158", "trainable": true, "kernel_constraint": null, "strides": [1, 1]}, "class_name": "Conv2D"}, {"name": "batch_normalization_158", "inbound_nodes": [[["conv2d_158", 0, 0, {}]]], "config": {"axis": -1, "epsilon": 0.001, "gamma_initializer": {"config": {}, "class_name": "Ones"}, "center": true, "scale": true, "moving_mean_initializer": {"config": {}, "class_name": "Zeros"}, "beta_regularizer": null, "gamma_constraint": null, "momentum": 0.99, "name": "batch_normalization_158", "trainable": true, "moving_variance_initializer": {"config": {}, "class_name": "Ones"}, "beta_constraint": null, "gamma_regularizer": null, "beta_initializer": {"config": {}, "class_name": "Zeros"}}, "class_name": "BatchNormalization"}, {"name": "activation_158", "inbound_nodes": [[["batch_normalization_158", 0, 0, {}]]], "config": {"name": "activation_158", "trainable": true, "activation": "relu"}, "class_name": "Activation"}, {"name": "max_pooling2d_35", "inbound_nodes": [[["activation_158", 0, 0, {}]]], "config": {"pool_size": [2, 2], "name": "max_pooling2d_35", "data_format": "channels_last", "trainable": true, "padding": "valid", "strides": [2, 2]}, "class_name": "MaxPooling2D"}, {"name": "conv2d_159", "inbound_nodes": [[["max_pooling2d_35", 0, 0, {}]]], "config": {"dilation_rate": [1, 1], "filters": 128, "activity_regularizer": null, "kernel_size": [3, 3], "activation": "linear", "bias_initializer": {"config": {}, "class_name": "Zeros"}, "data_format": "channels_last", "bias_regularizer": null, "kernel_regularizer": null, "kernel_initializer": {"config": {"seed": null, "scale": 2.0, "mode": "fan_in", "distribution": "normal"}, "class_name": "VarianceScaling"}, "padding": "same", "use_bias": true, "bias_constraint": null, "name": "conv2d_159", "trainable": true, "kernel_constraint": null, "strides": [1, 1]}, "class_name": "Conv2D"}, {"name": "batch_normalization_159", "inbound_nodes": [[["conv2d_159", 0, 0, {}]]], "config": {"axis": -1, "epsilon": 0.001, "gamma_initializer": {"config": {}, "class_name": "Ones"}, "center": true, "scale": true, "moving_mean_initializer": {"config": {}, "class_name": "Zeros"}, "beta_regularizer": null, "gamma_constraint": null, "momentum": 0.99, "name": "batch_normalization_159", "trainable": true, "moving_variance_initializer": {"config": {}, "class_name": "Ones"}, "beta_constraint": null, "gamma_regularizer": null, "beta_initializer": {"config": {}, "class_name": "Zeros"}}, "class_name": "BatchNormalization"}, {"name": "activation_159", "inbound_nodes": [[["batch_normalization_159", 0, 0, {}]]], "config": {"name": "activation_159", "trainable": true, "activation": "relu"}, "class_name": "Activation"}, {"name": "conv2d_160", "inbound_nodes": [[["activation_159", 0, 0, {}]]], "config": {"dilation_rate": [1, 1], "filters": 128, "activity_regularizer": null, "kernel_size": [3, 3], "activation": "linear", "bias_initializer": {"config": {}, "class_name": "Zeros"}, "data_format": "channels_last", "bias_regularizer": null, "kernel_regularizer": null, "kernel_initializer": {"config": {"seed": null, "scale": 2.0, "mode": "fan_in", "distribution": "normal"}, "class_name": "VarianceScaling"}, "padding": "same", "use_bias": true, "bias_constraint": null, "name": "conv2d_160", "trainable": true, "kernel_constraint": null, "strides": [1, 1]}, "class_name": "Conv2D"}, {"name": "batch_normalization_160", "inbound_nodes": [[["conv2d_160", 0, 0, {}]]], "config": {"axis": -1, "epsilon": 0.001, "gamma_initializer": {"config": {}, "class_name": "Ones"}, "center": true, "scale": true, "moving_mean_initializer": {"config": {}, "class_name": "Zeros"}, "beta_regularizer": null, "gamma_constraint": null, "momentum": 0.99, "name": "batch_normalization_160", "trainable": true, "moving_variance_initializer": {"config": {}, "class_name": "Ones"}, "beta_constraint": null, "gamma_regularizer": null, "beta_initializer": {"config": {}, "class_name": "Zeros"}}, "class_name": "BatchNormalization"}, {"name": "activation_160", "inbound_nodes": [[["batch_normalization_160", 0, 0, {}]]], "config": {"name": "activation_160", "trainable": true, "activation": "relu"}, "class_name": "Activation"}, {"name": "max_pooling2d_36", "inbound_nodes": [[["activation_160", 0, 0, {}]]], "config": {"pool_size": [2, 2], "name": "max_pooling2d_36", "data_format": "channels_last", "trainable": true, "padding": "valid", "strides": [2, 2]}, "class_name": "MaxPooling2D"}, {"name": "conv2d_161", "inbound_nodes": [[["max_pooling2d_36", 0, 0, {}]]], "config": {"dilation_rate": [1, 1], "filters": 256, "activity_regularizer": null, "kernel_size": [3, 3], "activation": "linear", "bias_initializer": {"config": {}, "class_name": "Zeros"}, "data_format": "channels_last", "bias_regularizer": null, "kernel_regularizer": null, "kernel_initializer": {"config": {"seed": null, "scale": 2.0, "mode": "fan_in", "distribution": "normal"}, "class_name": "VarianceScaling"}, "padding": "same", "use_bias": true, "bias_constraint": null, "name": "conv2d_161", "trainable": true, "kernel_constraint": null, "strides": [1, 1]}, "class_name": "Conv2D"}, {"name": "batch_normalization_161", "inbound_nodes": [[["conv2d_161", 0, 0, {}]]], "config": {"axis": -1, "epsilon": 0.001, "gamma_initializer": {"config": {}, "class_name": "Ones"}, "center": true, "scale": true, "moving_mean_initializer": {"config": {}, "class_name": "Zeros"}, "beta_regularizer": null, "gamma_constraint": null, "momentum": 0.99, "name": "batch_normalization_161", "trainable": true, "moving_variance_initializer": {"config": {}, "class_name": "Ones"}, "beta_constraint": null, "gamma_regularizer": null, "beta_initializer": {"config": {}, "class_name": "Zeros"}}, "class_name": "BatchNormalization"}, {"name": "activation_161", "inbound_nodes": [[["batch_normalization_161", 0, 0, {}]]], "config": {"name": "activation_161", "trainable": true, "activation": "relu"}, "class_name": "Activation"}, {"name": "conv2d_162", "inbound_nodes": [[["activation_161", 0, 0, {}]]], "config": {"dilation_rate": [1, 1], "filters": 256, "activity_regularizer": null, "kernel_size": [3, 3], "activation": "linear", "bias_initializer": {"config": {}, "class_name": "Zeros"}, "data_format": "channels_last", "bias_regularizer": null, "kernel_regularizer": null, "kernel_initializer": {"config": {"seed": null, "scale": 2.0, "mode": "fan_in", "distribution": "normal"}, "class_name": "VarianceScaling"}, "padding": "same", "use_bias": true, "bias_constraint": null, "name": "conv2d_162", "trainable": true, "kernel_constraint": null, "strides": [1, 1]}, "class_name": "Conv2D"}, {"name": "batch_normalization_162", "inbound_nodes": [[["conv2d_162", 0, 0, {}]]], "config": {"axis": -1, "epsilon": 0.001, "gamma_initializer": {"config": {}, "class_name": "Ones"}, "center": true, "scale": true, "moving_mean_initializer": {"config": {}, "class_name": "Zeros"}, "beta_regularizer": null, "gamma_constraint": null, "momentum": 0.99, "name": "batch_normalization_162", "trainable": true, "moving_variance_initializer": {"config": {}, "class_name": "Ones"}, "beta_constraint": null, "gamma_regularizer": null, "beta_initializer": {"config": {}, "class_name": "Zeros"}}, "class_name": "BatchNormalization"}, {"name": "activation_162", "inbound_nodes": [[["batch_normalization_162", 0, 0, {}]]], "config": {"name": "activation_162", "trainable": true, "activation": "relu"}, "class_name": "Activation"}, {"name": "dropout_12", "inbound_nodes": [[["activation_162", 0, 0, {}]]], "config": {"noise_shape": null, "name": "dropout_12", "trainable": true, "rate": 0.2, "seed": null}, "class_name": "Dropout"}, {"name": "conv2d_transpose_34", "inbound_nodes": [[["dropout_12", 0, 0, {}]]], "config": {"dilation_rate": [1, 1], "filters": 128, "activity_regularizer": null, "kernel_size": [2, 2], "activation": "linear", "data_format": "channels_last", "bias_regularizer": null, "kernel_regularizer": null, "kernel_initializer": {"config": {"seed": null, "scale": 1.0, "mode": "fan_avg", "distribution": "uniform"}, "class_name": "VarianceScaling"}, "padding": "same", "output_padding": null, "use_bias": true, "trainable": true, "bias_constraint": null, "name": "conv2d_transpose_34", "bias_initializer": {"config": {}, "class_name": "Zeros"}, "kernel_constraint": null, "strides": [2, 2]}, "class_name": "Conv2DTranspose"}, {"name": "concatenate_34", "inbound_nodes": [[["conv2d_transpose_34", 0, 0, {}], ["activation_160", 0, 0, {}]]], "config": {"axis": -1, "name": "concatenate_34", "trainable": true}, "class_name": "Concatenate"}, {"name": "conv2d_163", "inbound_nodes": [[["concatenate_34", 0, 0, {}]]], "config": {"dilation_rate": [1, 1], "filters": 128, "activity_regularizer": null, "kernel_size": [3, 3], "activation": "linear", "bias_initializer": {"config": {}, "class_name": "Zeros"}, "data_format": "channels_last", "bias_regularizer": null, "kernel_regularizer": null, "kernel_initializer": {"config": {"seed": null, "scale": 2.0, "mode": "fan_in", "distribution": "normal"}, "class_name": "VarianceScaling"}, "padding": "same", "use_bias": true, "bias_constraint": null, "name": "conv2d_163", "trainable": true, "kernel_constraint": null, "strides": [1, 1]}, "class_name": "Conv2D"}, {"name": "batch_normalization_163", "inbound_nodes": [[["conv2d_163", 0, 0, {}]]], "config": {"axis": -1, "epsilon": 0.001, "gamma_initializer": {"config": {}, "class_name": "Ones"}, "center": true, "scale": true, "moving_mean_initializer": {"config": {}, "class_name": "Zeros"}, "beta_regularizer": null, "gamma_constraint": null, "momentum": 0.99, "name": "batch_normalization_163", "trainable": true, "moving_variance_initializer": {"config": {}, "class_name": "Ones"}, "beta_constraint": null, "gamma_regularizer": null, "beta_initializer": {"config": {}, "class_name": "Zeros"}}, "class_name": "BatchNormalization"}, {"name": "activation_163", "inbound_nodes": [[["batch_normalization_163", 0, 0, {}]]], "config": {"name": "activation_163", "trainable": true, "activation": "relu"}, "class_name": "Activation"}, {"name": "conv2d_164", "inbound_nodes": [[["activation_163", 0, 0, {}]]], "config": {"dilation_rate": [1, 1], "filters": 128, "activity_regularizer": null, "kernel_size": [3, 3], "activation": "linear", "bias_initializer": {"config": {}, "class_name": "Zeros"}, "data_format": "channels_last", "bias_regularizer": null, "kernel_regularizer": null, "kernel_initializer": {"config": {"seed": null, "scale": 2.0, "mode": "fan_in", "distribution": "normal"}, "class_name": "VarianceScaling"}, "padding": "same", "use_bias": true, "bias_constraint": null, "name": "conv2d_164", "trainable": true, "kernel_constraint": null, "strides": [1, 1]}, "class_name": "Conv2D"}, {"name": "batch_normalization_164", "inbound_nodes": [[["conv2d_164", 0, 0, {}]]], "config": {"axis": -1, "epsilon": 0.001, "gamma_initializer": {"config": {}, "class_name": "Ones"}, "center": true, "scale": true, "moving_mean_initializer": {"config": {}, "class_name": "Zeros"}, "beta_regularizer": null, "gamma_constraint": null, "momentum": 0.99, "name": "batch_normalization_164", "trainable": true, "moving_variance_initializer": {"config": {}, "class_name": "Ones"}, "beta_constraint": null, "gamma_regularizer": null, "beta_initializer": {"config": {}, "class_name": "Zeros"}}, "class_name": "BatchNormalization"}, {"name": "activation_164", "inbound_nodes": [[["batch_normalization_164", 0, 0, {}]]], "config": {"name": "activation_164", "trainable": true, "activation": "relu"}, "class_name": "Activation"}, {"name": "conv2d_transpose_35", "inbound_nodes": [[["activation_164", 0, 0, {}]]], "config": {"dilation_rate": [1, 1], "filters": 64, "activity_regularizer": null, "kernel_size": [2, 2], "activation": "linear", "data_format": "channels_last", "bias_regularizer": null, "kernel_regularizer": null, "kernel_initializer": {"config": {"seed": null, "scale": 1.0, "mode": "fan_avg", "distribution": "uniform"}, "class_name": "VarianceScaling"}, "padding": "same", "output_padding": null, "use_bias": true, "trainable": true, "bias_constraint": null, "name": "conv2d_transpose_35", "bias_initializer": {"config": {}, "class_name": "Zeros"}, "kernel_constraint": null, "strides": [2, 2]}, "class_name": "Conv2DTranspose"}, {"name": "concatenate_35", "inbound_nodes": [[["conv2d_transpose_35", 0, 0, {}], ["activation_158", 0, 0, {}]]], "config": {"axis": -1, "name": "concatenate_35", "trainable": true}, "class_name": "Concatenate"}, {"name": "conv2d_165", "inbound_nodes": [[["concatenate_35", 0, 0, {}]]], "config": {"dilation_rate": [1, 1], "filters": 64, "activity_regularizer": null, "kernel_size": [3, 3], "activation": "linear", "bias_initializer": {"config": {}, "class_name": "Zeros"}, "data_format": "channels_last", "bias_regularizer": null, "kernel_regularizer": null, "kernel_initializer": {"config": {"seed": null, "scale": 2.0, "mode": "fan_in", "distribution": "normal"}, "class_name": "VarianceScaling"}, "padding": "same", "use_bias": true, "bias_constraint": null, "name": "conv2d_165", "trainable": true, "kernel_constraint": null, "strides": [1, 1]}, "class_name": "Conv2D"}, {"name": "batch_normalization_165", "inbound_nodes": [[["conv2d_165", 0, 0, {}]]], "config": {"axis": -1, "epsilon": 0.001, "gamma_initializer": {"config": {}, "class_name": "Ones"}, "center": true, "scale": true, "moving_mean_initializer": {"config": {}, "class_name": "Zeros"}, "beta_regularizer": null, "gamma_constraint": null, "momentum": 0.99, "name": "batch_normalization_165", "trainable": true, "moving_variance_initializer": {"config": {}, "class_name": "Ones"}, "beta_constraint": null, "gamma_regularizer": null, "beta_initializer": {"config": {}, "class_name": "Zeros"}}, "class_name": "BatchNormalization"}, {"name": "activation_165", "inbound_nodes": [[["batch_normalization_165", 0, 0, {}]]], "config": {"name": "activation_165", "trainable": true, "activation": "relu"}, "class_name": "Activation"}, {"name": "conv2d_166", "inbound_nodes": [[["activation_165", 0, 0, {}]]], "config": {"dilation_rate": [1, 1], "filters": 64, "activity_regularizer": null, "kernel_size": [3, 3], "activation": "linear", "bias_initializer": {"config": {}, "class_name": "Zeros"}, "data_format": "channels_last", "bias_regularizer": null, "kernel_regularizer": null, "kernel_initializer": {"config": {"seed": null, "scale": 2.0, "mode": "fan_in", "distribution": "normal"}, "class_name": "VarianceScaling"}, "padding": "same", "use_bias": true, "bias_constraint": null, "name": "conv2d_166", "trainable": true, "kernel_constraint": null, "strides": [1, 1]}, "class_name": "Conv2D"}, {"name": "batch_normalization_166", "inbound_nodes": [[["conv2d_166", 0, 0, {}]]], "config": {"axis": -1, "epsilon": 0.001, "gamma_initializer": {"config": {}, "class_name": "Ones"}, "center": true, "scale": true, "moving_mean_initializer": {"config": {}, "class_name": "Zeros"}, "beta_regularizer": null, "gamma_constraint": null, "momentum": 0.99, "name": "batch_normalization_166", "trainable": true, "moving_variance_initializer": {"config": {}, "class_name": "Ones"}, "beta_constraint": null, "gamma_regularizer": null, "beta_initializer": {"config": {}, "class_name": "Zeros"}}, "class_name": "BatchNormalization"}, {"name": "activation_166", "inbound_nodes": [[["batch_normalization_166", 0, 0, {}]]], "config": {"name": "activation_166", "trainable": true, "activation": "relu"}, "class_name": "Activation"}, {"name": "conv2d_transpose_36", "inbound_nodes": [[["activation_166", 0, 0, {}]]], "config": {"dilation_rate": [1, 1], "filters": 32, "activity_regularizer": null, "kernel_size": [2, 2], "activation": "linear", "data_format": "channels_last", "bias_regularizer": null, "kernel_regularizer": null, "kernel_initializer": {"config": {"seed": null, "scale": 1.0, "mode": "fan_avg", "distribution": "uniform"}, "class_name": "VarianceScaling"}, "padding": "same", "output_padding": null, "use_bias": true, "trainable": true, "bias_constraint": null, "name": "conv2d_transpose_36", "bias_initializer": {"config": {}, "class_name": "Zeros"}, "kernel_constraint": null, "strides": [2, 2]}, "class_name": "Conv2DTranspose"}, {"name": "concatenate_36", "inbound_nodes": [[["conv2d_transpose_36", 0, 0, {}], ["activation_156", 0, 0, {}]]], "config": {"axis": -1, "name": "concatenate_36", "trainable": true}, "class_name": "Concatenate"}, {"name": "conv2d_167", "inbound_nodes": [[["concatenate_36", 0, 0, {}]]], "config": {"dilation_rate": [1, 1], "filters": 32, "activity_regularizer": null, "kernel_size": [3, 3], "activation": "linear", "bias_initializer": {"config": {}, "class_name": "Zeros"}, "data_format": "channels_last", "bias_regularizer": null, "kernel_regularizer": null, "kernel_initializer": {"config": {"seed": null, "scale": 2.0, "mode": "fan_in", "distribution": "normal"}, "class_name": "VarianceScaling"}, "padding": "same", "use_bias": true, "bias_constraint": null, "name": "conv2d_167", "trainable": true, "kernel_constraint": null, "strides": [1, 1]}, "class_name": "Conv2D"}, {"name": "batch_normalization_167", "inbound_nodes": [[["conv2d_167", 0, 0, {}]]], "config": {"axis": -1, "epsilon": 0.001, "gamma_initializer": {"config": {}, "class_name": "Ones"}, "center": true, "scale": true, "moving_mean_initializer": {"config": {}, "class_name": "Zeros"}, "beta_regularizer": null, "gamma_constraint": null, "momentum": 0.99, "name": "batch_normalization_167", "trainable": true, "moving_variance_initializer": {"config": {}, "class_name": "Ones"}, "beta_constraint": null, "gamma_regularizer": null, "beta_initializer": {"config": {}, "class_name": "Zeros"}}, "class_name": "BatchNormalization"}, {"name": "activation_167", "inbound_nodes": [[["batch_normalization_167", 0, 0, {}]]], "config": {"name": "activation_167", "trainable": true, "activation": "relu"}, "class_name": "Activation"}, {"name": "conv2d_168", "inbound_nodes": [[["activation_167", 0, 0, {}]]], "config": {"dilation_rate": [1, 1], "filters": 32, "activity_regularizer": null, "kernel_size": [3, 3], "activation": "linear", "bias_initializer": {"config": {}, "class_name": "Zeros"}, "data_format": "channels_last", "bias_regularizer": null, "kernel_regularizer": null, "kernel_initializer": {"config": {"seed": null, "scale": 2.0, "mode": "fan_in", "distribution": "normal"}, "class_name": "VarianceScaling"}, "padding": "same", "use_bias": true, "bias_constraint": null, "name": "conv2d_168", "trainable": true, "kernel_constraint": null, "strides": [1, 1]}, "class_name": "Conv2D"}, {"name": "batch_normalization_168", "inbound_nodes": [[["conv2d_168", 0, 0, {}]]], "config": {"axis": -1, "epsilon": 0.001, "gamma_initializer": {"config": {}, "class_name": "Ones"}, "center": true, "scale": true, "moving_mean_initializer": {"config": {}, "class_name": "Zeros"}, "beta_regularizer": null, "gamma_constraint": null, "momentum": 0.99, "name": "batch_normalization_168", "trainable": true, "moving_variance_initializer": {"config": {}, "class_name": "Ones"}, "beta_constraint": null, "gamma_regularizer": null, "beta_initializer": {"config": {}, "class_name": "Zeros"}}, "class_name": "BatchNormalization"}, {"name": "activation_168", "inbound_nodes": [[["batch_normalization_168", 0, 0, {}]]], "config": {"name": "activation_168", "trainable": true, "activation": "relu"}, "class_name": "Activation"}, {"name": "output_mask", "inbound_nodes": [[["activation_168", 0, 0, {}]]], "config": {"dilation_rate": [1, 1], "filters": 1, "activity_regularizer": null, "kernel_size": [1, 1], "activation": "sigmoid", "bias_initializer": {"config": {}, "class_name": "Zeros"}, "data_format": "channels_last", "bias_regularizer": null, "kernel_regularizer": null, "kernel_initializer": {"config": {"seed": null, "scale": 2.0, "mode": "fan_in", "distribution": "normal"}, "class_name": "VarianceScaling"}, "padding": "valid", "use_bias": true, "bias_constraint": null, "name": "output_mask", "trainable": true, "kernel_constraint": null, "strides": [1, 1]}, "class_name": "Conv2D"}]}, "backend": "tensorflow", "class_name": "Model"}