{"keras_version": "2.2.4", "config": {"name": "model_11", "input_layers": [["input_one", 0, 0]], "output_layers": [["output_mask", 0, 0]], "layers": [{"name": "input_one", "inbound_nodes": [], "config": {"name": "input_one", "sparse": false, "dtype": "float32", "batch_input_shape": [null, 256, 256, 2]}, "class_name": "InputLayer"}, {"name": "conv2d_141", "inbound_nodes": [[["input_one", 0, 0, {}]]], "config": {"dilation_rate": [1, 1], "filters": 32, "activity_regularizer": null, "kernel_size": [3, 3], "activation": "linear", "bias_initializer": {"config": {}, "class_name": "Zeros"}, "data_format": "channels_last", "bias_regularizer": null, "kernel_regularizer": null, "kernel_initializer": {"config": {"seed": null, "scale": 2.0, "mode": "fan_in", "distribution": "normal"}, "class_name": "VarianceScaling"}, "padding": "same", "use_bias": true, "bias_constraint": null, "name": "conv2d_141", "trainable": true, "kernel_constraint": null, "strides": [1, 1]}, "class_name": "Conv2D"}, {"name": "batch_normalization_141", "inbound_nodes": [[["conv2d_141", 0, 0, {}]]], "config": {"axis": -1, "epsilon": 0.001, "gamma_initializer": {"config": {}, "class_name": "Ones"}, "center": true, "scale": true, "moving_mean_initializer": {"config": {}, "class_name": "Zeros"}, "beta_regularizer": null, "gamma_constraint": null, "momentum": 0.99, "name": "batch_normalization_141", "trainable": true, "moving_variance_initializer": {"config": {}, "class_name": "Ones"}, "beta_constraint": null, "gamma_regularizer": null, "beta_initializer": {"config": {}, "class_name": "Zeros"}}, "class_name": "BatchNormalization"}, {"name": "activation_141", "inbound_nodes": [[["batch_normalization_141", 0, 0, {}]]], "config": {"name": "activation_141", "trainable": true, "activation": "relu"}, "class_name": "Activation"}, {"name": "conv2d_142", "inbound_nodes": [[["activation_141", 0, 0, {}]]], "config": {"dilation_rate": [1, 1], "filters": 32, "activity_regularizer": null, "kernel_size": [3, 3], "activation": "linear", "bias_initializer": {"config": {}, "class_name": "Zeros"}, "data_format": "channels_last", "bias_regularizer": null, "kernel_regularizer": null, "kernel_initializer": {"config": {"seed": null, "scale": 2.0, "mode": "fan_in", "distribution": "normal"}, "class_name": "VarianceScaling"}, "padding": "same", "use_bias": true, "bias_constraint": null, "name": "conv2d_142", "trainable": true, "kernel_constraint": null, "strides": [1, 1]}, "class_name": "Conv2D"}, {"name": "batch_normalization_142", "inbound_nodes": [[["conv2d_142", 0, 0, {}]]], "config": {"axis": -1, "epsilon": 0.001, "gamma_initializer": {"config": {}, "class_name": "Ones"}, "center": true, "scale": true, "moving_mean_initializer": {"config": {}, "class_name": "Zeros"}, "beta_regularizer": null, "gamma_constraint": null, "momentum": 0.99, "name": "batch_normalization_142", "trainable": true, "moving_variance_initializer": {"config": {}, "class_name": "Ones"}, "beta_constraint": null, "gamma_regularizer": null, "beta_initializer": {"config": {}, "class_name": "Zeros"}}, "class_name": "BatchNormalization"}, {"name": "activation_142", "inbound_nodes": [[["batch_normalization_142", 0, 0, {}]]], "config": {"name": "activation_142", "trainable": true, "activation": "relu"}, "class_name": "Activation"}, {"name": "max_pooling2d_31", "inbound_nodes": [[["activation_142", 0, 0, {}]]], "config": {"pool_size": [2, 2], "name": "max_pooling2d_31", "data_format": "channels_last", "trainable": true, "padding": "valid", "strides": [2, 2]}, "class_name": "MaxPooling2D"}, {"name": "conv2d_143", "inbound_nodes": [[["max_pooling2d_31", 0, 0, {}]]], "config": {"dilation_rate": [1, 1], "filters": 64, "activity_regularizer": null, "kernel_size": [3, 3], "activation": "linear", "bias_initializer": {"config": {}, "class_name": "Zeros"}, "data_format": "channels_last", "bias_regularizer": null, "kernel_regularizer": null, "kernel_initializer": {"config": {"seed": null, "scale": 2.0, "mode": "fan_in", "distribution": "normal"}, "class_name": "VarianceScaling"}, "padding": "same", "use_bias": true, "bias_constraint": null, "name": "conv2d_143", "trainable": true, "kernel_constraint": null, "strides": [1, 1]}, "class_name": "Conv2D"}, {"name": "batch_normalization_143", "inbound_nodes": [[["conv2d_143", 0, 0, {}]]], "config": {"axis": -1, "epsilon": 0.001, "gamma_initializer": {"config": {}, "class_name": "Ones"}, "center": true, "scale": true, "moving_mean_initializer": {"config": {}, "class_name": "Zeros"}, "beta_regularizer": null, "gamma_constraint": null, "momentum": 0.99, "name": "batch_normalization_143", "trainable": true, "moving_variance_initializer": {"config": {}, "class_name": "Ones"}, "beta_constraint": null, "gamma_regularizer": null, "beta_initializer": {"config": {}, "class_name": "Zeros"}}, "class_name": "BatchNormalization"}, {"name": "activation_143", "inbound_nodes": [[["batch_normalization_143", 0, 0, {}]]], "config": {"name": "activation_143", "trainable": true, "activation": "relu"}, "class_name": "Activation"}, {"name": "conv2d_144", "inbound_nodes": [[["activation_143", 0, 0, {}]]], "config": {"dilation_rate": [1, 1], "filters": 64, "activity_regularizer": null, "kernel_size": [3, 3], "activation": "linear", "bias_initializer": {"config": {}, "class_name": "Zeros"}, "data_format": "channels_last", "bias_regularizer": null, "kernel_regularizer": null, "kernel_initializer": {"config": {"seed": null, "scale": 2.0, "mode": "fan_in", "distribution": "normal"}, "class_name": "VarianceScaling"}, "padding": "same", "use_bias": true, "bias_constraint": null, "name": "conv2d_144", "trainable": true, "kernel_constraint": null, "strides": [1, 1]}, "class_name": "Conv2D"}, {"name": "batch_normalization_144", "inbound_nodes": [[["conv2d_144", 0, 0, {}]]], "config": {"axis": -1, "epsilon": 0.001, "gamma_initializer": {"config": {}, "class_name": "Ones"}, "center": true, "scale": true, "moving_mean_initializer": {"config": {}, "class_name": "Zeros"}, "beta_regularizer": null, "gamma_constraint": null, "momentum": 0.99, "name": "batch_normalization_144", "trainable": true, "moving_variance_initializer": {"config": {}, "class_name": "Ones"}, "beta_constraint": null, "gamma_regularizer": null, "beta_initializer": {"config": {}, "class_name": "Zeros"}}, "class_name": "BatchNormalization"}, {"name": "activation_144", "inbound_nodes": [[["batch_normalization_144", 0, 0, {}]]], "config": {"name": "activation_144", "trainable": true, "activation": "relu"}, "class_name": "Activation"}, {"name": "max_pooling2d_32", "inbound_nodes": [[["activation_144", 0, 0, {}]]], "config": {"pool_size": [2, 2], "name": "max_pooling2d_32", "data_format": "channels_last", "trainable": true, "padding": "valid", "strides": [2, 2]}, "class_name": "MaxPooling2D"}, {"name": "conv2d_145", "inbound_nodes": [[["max_pooling2d_32", 0, 0, {}]]], "config": {"dilation_rate": [1, 1], "filters": 128, "activity_regularizer": null, "kernel_size": [3, 3], "activation": "linear", "bias_initializer": {"config": {}, "class_name": "Zeros"}, "data_format": "channels_last", "bias_regularizer": null, "kernel_regularizer": null, "kernel_initializer": {"config": {"seed": null, "scale": 2.0, "mode": "fan_in", "distribution": "normal"}, "class_name": "VarianceScaling"}, "padding": "same", "use_bias": true, "bias_constraint": null, "name": "conv2d_145", "trainable": true, "kernel_constraint": null, "strides": [1, 1]}, "class_name": "Conv2D"}, {"name": "batch_normalization_145", "inbound_nodes": [[["conv2d_145", 0, 0, {}]]], "config": {"axis": -1, "epsilon": 0.001, "gamma_initializer": {"config": {}, "class_name": "Ones"}, "center": true, "scale": true, "moving_mean_initializer": {"config": {}, "class_name": "Zeros"}, "beta_regularizer": null, "gamma_constraint": null, "momentum": 0.99, "name": "batch_normalization_145", "trainable": true, "moving_variance_initializer": {"config": {}, "class_name": "Ones"}, "beta_constraint": null, "gamma_regularizer": null, "beta_initializer": {"config": {}, "class_name": "Zeros"}}, "class_name": "BatchNormalization"}, {"name": "activation_145", "inbound_nodes": [[["batch_normalization_145", 0, 0, {}]]], "config": {"name": "activation_145", "trainable": true, "activation": "relu"}, "class_name": "Activation"}, {"name": "conv2d_146", "inbound_nodes": [[["activation_145", 0, 0, {}]]], "config": {"dilation_rate": [1, 1], "filters": 128, "activity_regularizer": null, "kernel_size": [3, 3], "activation": "linear", "bias_initializer": {"config": {}, "class_name": "Zeros"}, "data_format": "channels_last", "bias_regularizer": null, "kernel_regularizer": null, "kernel_initializer": {"config": {"seed": null, "scale": 2.0, "mode": "fan_in", "distribution": "normal"}, "class_name": "VarianceScaling"}, "padding": "same", "use_bias": true, "bias_constraint": null, "name": "conv2d_146", "trainable": true, "kernel_constraint": null, "strides": [1, 1]}, "class_name": "Conv2D"}, {"name": "batch_normalization_146", "inbound_nodes": [[["conv2d_146", 0, 0, {}]]], "config": {"axis": -1, "epsilon": 0.001, "gamma_initializer": {"config": {}, "class_name": "Ones"}, "center": true, "scale": true, "moving_mean_initializer": {"config": {}, "class_name": "Zeros"}, "beta_regularizer": null, "gamma_constraint": null, "momentum": 0.99, "name": "batch_normalization_146", "trainable": true, "moving_variance_initializer": {"config": {}, "class_name": "Ones"}, "beta_constraint": null, "gamma_regularizer": null, "beta_initializer": {"config": {}, "class_name": "Zeros"}}, "class_name": "BatchNormalization"}, {"name": "activation_146", "inbound_nodes": [[["batch_normalization_146", 0, 0, {}]]], "config": {"name": "activation_146", "trainable": true, "activation": "relu"}, "class_name": "Activation"}, {"name": "max_pooling2d_33", "inbound_nodes": [[["activation_146", 0, 0, {}]]], "config": {"pool_size": [2, 2], "name": "max_pooling2d_33", "data_format": "channels_last", "trainable": true, "padding": "valid", "strides": [2, 2]}, "class_name": "MaxPooling2D"}, {"name": "conv2d_147", "inbound_nodes": [[["max_pooling2d_33", 0, 0, {}]]], "config": {"dilation_rate": [1, 1], "filters": 256, "activity_regularizer": null, "kernel_size": [3, 3], "activation": "linear", "bias_initializer": {"config": {}, "class_name": "Zeros"}, "data_format": "channels_last", "bias_regularizer": null, "kernel_regularizer": null, "kernel_initializer": {"config": {"seed": null, "scale": 2.0, "mode": "fan_in", "distribution": "normal"}, "class_name": "VarianceScaling"}, "padding": "same", "use_bias": true, "bias_constraint": null, "name": "conv2d_147", "trainable": true, "kernel_constraint": null, "strides": [1, 1]}, "class_name": "Conv2D"}, {"name": "batch_normalization_147", "inbound_nodes": [[["conv2d_147", 0, 0, {}]]], "config": {"axis": -1, "epsilon": 0.001, "gamma_initializer": {"config": {}, "class_name": "Ones"}, "center": true, "scale": true, "moving_mean_initializer": {"config": {}, "class_name": "Zeros"}, "beta_regularizer": null, "gamma_constraint": null, "momentum": 0.99, "name": "batch_normalization_147", "trainable": true, "moving_variance_initializer": {"config": {}, "class_name": "Ones"}, "beta_constraint": null, "gamma_regularizer": null, "beta_initializer": {"config": {}, "class_name": "Zeros"}}, "class_name": "BatchNormalization"}, {"name": "activation_147", "inbound_nodes": [[["batch_normalization_147", 0, 0, {}]]], "config": {"name": "activation_147", "trainable": true, "activation": "relu"}, "class_name": "Activation"}, {"name": "conv2d_148", "inbound_nodes": [[["activation_147", 0, 0, {}]]], "config": {"dilation_rate": [1, 1], "filters": 256, "activity_regularizer": null, "kernel_size": [3, 3], "activation": "linear", "bias_initializer": {"config": {}, "class_name": "Zeros"}, "data_format": "channels_last", "bias_regularizer": null, "kernel_regularizer": null, "kernel_initializer": {"config": {"seed": null, "scale": 2.0, "mode": "fan_in", "distribution": "normal"}, "class_name": "VarianceScaling"}, "padding": "same", "use_bias": true, "bias_constraint": null, "name": "conv2d_148", "trainable": true, "kernel_constraint": null, "strides": [1, 1]}, "class_name": "Conv2D"}, {"name": "batch_normalization_148", "inbound_nodes": [[["conv2d_148", 0, 0, {}]]], "config": {"axis": -1, "epsilon": 0.001, "gamma_initializer": {"config": {}, "class_name": "Ones"}, "center": true, "scale": true, "moving_mean_initializer": {"config": {}, "class_name": "Zeros"}, "beta_regularizer": null, "gamma_constraint": null, "momentum": 0.99, "name": "batch_normalization_148", "trainable": true, "moving_variance_initializer": {"config": {}, "class_name": "Ones"}, "beta_constraint": null, "gamma_regularizer": null, "beta_initializer": {"config": {}, "class_name": "Zeros"}}, "class_name": "BatchNormalization"}, {"name": "activation_148", "inbound_nodes": [[["batch_normalization_148", 0, 0, {}]]], "config": {"name": "activation_148", "trainable": true, "activation": "relu"}, "class_name": "Activation"}, {"name": "dropout_11", "inbound_nodes": [[["activation_148", 0, 0, {}]]], "config": {"noise_shape": null, "name": "dropout_11", "trainable": true, "rate": 0.2, "seed": null}, "class_name": "Dropout"}, {"name": "conv2d_transpose_31", "inbound_nodes": [[["dropout_11", 0, 0, {}]]], "config": {"dilation_rate": [1, 1], "filters": 128, "activity_regularizer": null, "kernel_size": [2, 2], "activation": "linear", "data_format": "channels_last", "bias_regularizer": null, "kernel_regularizer": null, "kernel_initializer": {"config": {"seed": null, "scale": 1.0, "mode": "fan_avg", "distribution": "uniform"}, "class_name": "VarianceScaling"}, "padding": "same", "output_padding": null, "use_bias": true, "trainable": true, "bias_constraint": null, "name": "conv2d_transpose_31", "bias_initializer": {"config": {}, "class_name": "Zeros"}, "kernel_constraint": null, "strides": [2, 2]}, "class_name": "Conv2DTranspose"}, {"name": "concatenate_31", "inbound_nodes": [[["conv2d_transpose_31", 0, 0, {}], ["activation_146", 0, 0, {}]]], "config": {"axis": -1, "name": "concatenate_31", "trainable": true}, "class_name": "Concatenate"}, {"name": "conv2d_149", "inbound_nodes": [[["concatenate_31", 0, 0, {}]]], "config": {"dilation_rate": [1, 1], "filters": 128, "activity_regularizer": null, "kernel_size": [3, 3], "activation": "linear", "bias_initializer": {"config": {}, "class_name": "Zeros"}, "data_format": "channels_last", "bias_regularizer": null, "kernel_regularizer": null, "kernel_initializer": {"config": {"seed": null, "scale": 2.0, "mode": "fan_in", "distribution": "normal"}, "class_name": "VarianceScaling"}, "padding": "same", "use_bias": true, "bias_constraint": null, "name": "conv2d_149", "trainable": true, "kernel_constraint": null, "strides": [1, 1]}, "class_name": "Conv2D"}, {"name": "batch_normalization_149", "inbound_nodes": [[["conv2d_149", 0, 0, {}]]], "config": {"axis": -1, "epsilon": 0.001, "gamma_initializer": {"config": {}, "class_name": "Ones"}, "center": true, "scale": true, "moving_mean_initializer": {"config": {}, "class_name": "Zeros"}, "beta_regularizer": null, "gamma_constraint": null, "momentum": 0.99, "name": "batch_normalization_149", "trainable": true, "moving_variance_initializer": {"config": {}, "class_name": "Ones"}, "beta_constraint": null, "gamma_regularizer": null, "beta_initializer": {"config": {}, "class_name": "Zeros"}}, "class_name": "BatchNormalization"}, {"name": "activation_149", "inbound_nodes": [[["batch_normalization_149", 0, 0, {}]]], "config": {"name": "activation_149", "trainable": true, "activation": "relu"}, "class_name": "Activation"}, {"name": "conv2d_150", "inbound_nodes": [[["activation_149", 0, 0, {}]]], "config": {"dilation_rate": [1, 1], "filters": 128, "activity_regularizer": null, "kernel_size": [3, 3], "activation": "linear", "bias_initializer": {"config": {}, "class_name": "Zeros"}, "data_format": "channels_last", "bias_regularizer": null, "kernel_regularizer": null, "kernel_initializer": {"config": {"seed": null, "scale": 2.0, "mode": "fan_in", "distribution": "normal"}, "class_name": "VarianceScaling"}, "padding": "same", "use_bias": true, "bias_constraint": null, "name": "conv2d_150", "trainable": true, "kernel_constraint": null, "strides": [1, 1]}, "class_name": "Conv2D"}, {"name": "batch_normalization_150", "inbound_nodes": [[["conv2d_150", 0, 0, {}]]], "config": {"axis": -1, "epsilon": 0.001, "gamma_initializer": {"config": {}, "class_name": "Ones"}, "center": true, "scale": true, "moving_mean_initializer": {"config": {}, "class_name": "Zeros"}, "beta_regularizer": null, "gamma_constraint": null, "momentum": 0.99, "name": "batch_normalization_150", "trainable": true, "moving_variance_initializer": {"config": {}, "class_name": "Ones"}, "beta_constraint": null, "gamma_regularizer": null, "beta_initializer": {"config": {}, "class_name": "Zeros"}}, "class_name": "BatchNormalization"}, {"name": "activation_150", "inbound_nodes": [[["batch_normalization_150", 0, 0, {}]]], "config": {"name": "activation_150", "trainable": true, "activation": "relu"}, "class_name": "Activation"}, {"name": "conv2d_transpose_32", "inbound_nodes": [[["activation_150", 0, 0, {}]]], "config": {"dilation_rate": [1, 1], "filters": 64, "activity_regularizer": null, "kernel_size": [2, 2], "activation": "linear", "data_format": "channels_last", "bias_regularizer": null, "kernel_regularizer": null, "kernel_initializer": {"config": {"seed": null, "scale": 1.0, "mode": "fan_avg", "distribution": "uniform"}, "class_name": "VarianceScaling"}, "padding": "same", "output_padding": null, "use_bias": true, "trainable": true, "bias_constraint": null, "name": "conv2d_transpose_32", "bias_initializer": {"config": {}, "class_name": "Zeros"}, "kernel_constraint": null, "strides": [2, 2]}, "class_name": "Conv2DTranspose"}, {"name": "concatenate_32", "inbound_nodes": [[["conv2d_transpose_32", 0, 0, {}], ["activation_144", 0, 0, {}]]], "config": {"axis": -1, "name": "concatenate_32", "trainable": true}, "class_name": "Concatenate"}, {"name": "conv2d_151", "inbound_nodes": [[["concatenate_32", 0, 0, {}]]], "config": {"dilation_rate": [1, 1], "filters": 64, "activity_regularizer": null, "kernel_size": [3, 3], "activation": "linear", "bias_initializer": {"config": {}, "class_name": "Zeros"}, "data_format": "channels_last", "bias_regularizer": null, "kernel_regularizer": null, "kernel_initializer": {"config": {"seed": null, "scale": 2.0, "mode": "fan_in", "distribution": "normal"}, "class_name": "VarianceScaling"}, "padding": "same", "use_bias": true, "bias_constraint": null, "name": "conv2d_151", "trainable": true, "kernel_constraint": null, "strides": [1, 1]}, "class_name": "Conv2D"}, {"name": "batch_normalization_151", "inbound_nodes": [[["conv2d_151", 0, 0, {}]]], "config": {"axis": -1, "epsilon": 0.001, "gamma_initializer": {"config": {}, "class_name": "Ones"}, "center": true, "scale": true, "moving_mean_initializer": {"config": {}, "class_name": "Zeros"}, "beta_regularizer": null, "gamma_constraint": null, "momentum": 0.99, "name": "batch_normalization_151", "trainable": true, "moving_variance_initializer": {"config": {}, "class_name": "Ones"}, "beta_constraint": null, "gamma_regularizer": null, "beta_initializer": {"config": {}, "class_name": "Zeros"}}, "class_name": "BatchNormalization"}, {"name": "activation_151", "inbound_nodes": [[["batch_normalization_151", 0, 0, {}]]], "config": {"name": "activation_151", "trainable": true, "activation": "relu"}, "class_name": "Activation"}, {"name": "conv2d_152", "inbound_nodes": [[["activation_151", 0, 0, {}]]], "config": {"dilation_rate": [1, 1], "filters": 64, "activity_regularizer": null, "kernel_size": [3, 3], "activation": "linear", "bias_initializer": {"config": {}, "class_name": "Zeros"}, "data_format": "channels_last", "bias_regularizer": null, "kernel_regularizer": null, "kernel_initializer": {"config": {"seed": null, "scale": 2.0, "mode": "fan_in", "distribution": "normal"}, "class_name": "VarianceScaling"}, "padding": "same", "use_bias": true, "bias_constraint": null, "name": "conv2d_152", "trainable": true, "kernel_constraint": null, "strides": [1, 1]}, "class_name": "Conv2D"}, {"name": "batch_normalization_152", "inbound_nodes": [[["conv2d_152", 0, 0, {}]]], "config": {"axis": -1, "epsilon": 0.001, "gamma_initializer": {"config": {}, "class_name": "Ones"}, "center": true, "scale": true, "moving_mean_initializer": {"config": {}, "class_name": "Zeros"}, "beta_regularizer": null, "gamma_constraint": null, "momentum": 0.99, "name": "batch_normalization_152", "trainable": true, "moving_variance_initializer": {"config": {}, "class_name": "Ones"}, "beta_constraint": null, "gamma_regularizer": null, "beta_initializer": {"config": {}, "class_name": "Zeros"}}, "class_name": "BatchNormalization"}, {"name": "activation_152", "inbound_nodes": [[["batch_normalization_152", 0, 0, {}]]], "config": {"name": "activation_152", "trainable": true, "activation": "relu"}, "class_name": "Activation"}, {"name": "conv2d_transpose_33", "inbound_nodes": [[["activation_152", 0, 0, {}]]], "config": {"dilation_rate": [1, 1], "filters": 32, "activity_regularizer": null, "kernel_size": [2, 2], "activation": "linear", "data_format": "channels_last", "bias_regularizer": null, "kernel_regularizer": null, "kernel_initializer": {"config": {"seed": null, "scale": 1.0, "mode": "fan_avg", "distribution": "uniform"}, "class_name": "VarianceScaling"}, "padding": "same", "output_padding": null, "use_bias": true, "trainable": true, "bias_constraint": null, "name": "conv2d_transpose_33", "bias_initializer": {"config": {}, "class_name": "Zeros"}, "kernel_constraint": null, "strides": [2, 2]}, "class_name": "Conv2DTranspose"}, {"name": "concatenate_33", "inbound_nodes": [[["conv2d_transpose_33", 0, 0, {}], ["activation_142", 0, 0, {}]]], "config": {"axis": -1, "name": "concatenate_33", "trainable": true}, "class_name": "Concatenate"}, {"name": "conv2d_153", "inbound_nodes": [[["concatenate_33", 0, 0, {}]]], "config": {"dilation_rate": [1, 1], "filters": 32, "activity_regularizer": null, "kernel_size": [3, 3], "activation": "linear", "bias_initializer": {"config": {}, "class_name": "Zeros"}, "data_format": "channels_last", "bias_regularizer": null, "kernel_regularizer": null, "kernel_initializer": {"config": {"seed": null, "scale": 2.0, "mode": "fan_in", "distribution": "normal"}, "class_name": "VarianceScaling"}, "padding": "same", "use_bias": true, "bias_constraint": null, "name": "conv2d_153", "trainable": true, "kernel_constraint": null, "strides": [1, 1]}, "class_name": "Conv2D"}, {"name": "batch_normalization_153", "inbound_nodes": [[["conv2d_153", 0, 0, {}]]], "config": {"axis": -1, "epsilon": 0.001, "gamma_initializer": {"config": {}, "class_name": "Ones"}, "center": true, "scale": true, "moving_mean_initializer": {"config": {}, "class_name": "Zeros"}, "beta_regularizer": null, "gamma_constraint": null, "momentum": 0.99, "name": "batch_normalization_153", "trainable": true, "moving_variance_initializer": {"config": {}, "class_name": "Ones"}, "beta_constraint": null, "gamma_regularizer": null, "beta_initializer": {"config": {}, "class_name": "Zeros"}}, "class_name": "BatchNormalization"}, {"name": "activation_153", "inbound_nodes": [[["batch_normalization_153", 0, 0, {}]]], "config": {"name": "activation_153", "trainable": true, "activation": "relu"}, "class_name": "Activation"}, {"name": "conv2d_154", "inbound_nodes": [[["activation_153", 0, 0, {}]]], "config": {"dilation_rate": [1, 1], "filters": 32, "activity_regularizer": null, "kernel_size": [3, 3], "activation": "linear", "bias_initializer": {"config": {}, "class_name": "Zeros"}, "data_format": "channels_last", "bias_regularizer": null, "kernel_regularizer": null, "kernel_initializer": {"config": {"seed": null, "scale": 2.0, "mode": "fan_in", "distribution": "normal"}, "class_name": "VarianceScaling"}, "padding": "same", "use_bias": true, "bias_constraint": null, "name": "conv2d_154", "trainable": true, "kernel_constraint": null, "strides": [1, 1]}, "class_name": "Conv2D"}, {"name": "batch_normalization_154", "inbound_nodes": [[["conv2d_154", 0, 0, {}]]], "config": {"axis": -1, "epsilon": 0.001, "gamma_initializer": {"config": {}, "class_name": "Ones"}, "center": true, "scale": true, "moving_mean_initializer": {"config": {}, "class_name": "Zeros"}, "beta_regularizer": null, "gamma_constraint": null, "momentum": 0.99, "name": "batch_normalization_154", "trainable": true, "moving_variance_initializer": {"config": {}, "class_name": "Ones"}, "beta_constraint": null, "gamma_regularizer": null, "beta_initializer": {"config": {}, "class_name": "Zeros"}}, "class_name": "BatchNormalization"}, {"name": "activation_154", "inbound_nodes": [[["batch_normalization_154", 0, 0, {}]]], "config": {"name": "activation_154", "trainable": true, "activation": "relu"}, "class_name": "Activation"}, {"name": "output_mask", "inbound_nodes": [[["activation_154", 0, 0, {}]]], "config": {"dilation_rate": [1, 1], "filters": 1, "activity_regularizer": null, "kernel_size": [1, 1], "activation": "sigmoid", "bias_initializer": {"config": {}, "class_name": "Zeros"}, "data_format": "channels_last", "bias_regularizer": null, "kernel_regularizer": null, "kernel_initializer": {"config": {"seed": null, "scale": 2.0, "mode": "fan_in", "distribution": "normal"}, "class_name": "VarianceScaling"}, "padding": "valid", "use_bias": true, "bias_constraint": null, "name": "output_mask", "trainable": true, "kernel_constraint": null, "strides": [1, 1]}, "class_name": "Conv2D"}]}, "backend": "tensorflow", "class_name": "Model"}