{"keras_version": "2.2.4", "config": {"name": "model_10", "input_layers": [["input_one", 0, 0]], "output_layers": [["output_mask", 0, 0]], "layers": [{"name": "input_one", "inbound_nodes": [], "config": {"name": "input_one", "sparse": false, "dtype": "float32", "batch_input_shape": [null, 256, 256, 1]}, "class_name": "InputLayer"}, {"name": "conv2d_127", "inbound_nodes": [[["input_one", 0, 0, {}]]], "config": {"dilation_rate": [1, 1], "filters": 32, "activity_regularizer": null, "kernel_size": [3, 3], "activation": "linear", "bias_initializer": {"config": {}, "class_name": "Zeros"}, "data_format": "channels_last", "bias_regularizer": null, "kernel_regularizer": null, "kernel_initializer": {"config": {"seed": null, "scale": 2.0, "mode": "fan_in", "distribution": "normal"}, "class_name": "VarianceScaling"}, "padding": "same", "use_bias": true, "bias_constraint": null, "name": "conv2d_127", "trainable": true, "kernel_constraint": null, "strides": [1, 1]}, "class_name": "Conv2D"}, {"name": "batch_normalization_127", "inbound_nodes": [[["conv2d_127", 0, 0, {}]]], "config": {"axis": -1, "epsilon": 0.001, "gamma_initializer": {"config": {}, "class_name": "Ones"}, "center": true, "scale": true, "moving_mean_initializer": {"config": {}, "class_name": "Zeros"}, "beta_regularizer": null, "gamma_constraint": null, "momentum": 0.99, "name": "batch_normalization_127", "trainable": true, "moving_variance_initializer": {"config": {}, "class_name": "Ones"}, "beta_constraint": null, "gamma_regularizer": null, "beta_initializer": {"config": {}, "class_name": "Zeros"}}, "class_name": "BatchNormalization"}, {"name": "activation_127", "inbound_nodes": [[["batch_normalization_127", 0, 0, {}]]], "config": {"name": "activation_127", "trainable": true, "activation": "relu"}, "class_name": "Activation"}, {"name": "conv2d_128", "inbound_nodes": [[["activation_127", 0, 0, {}]]], "config": {"dilation_rate": [1, 1], "filters": 32, "activity_regularizer": null, "kernel_size": [3, 3], "activation": "linear", "bias_initializer": {"config": {}, "class_name": "Zeros"}, "data_format": "channels_last", "bias_regularizer": null, "kernel_regularizer": null, "kernel_initializer": {"config": {"seed": null, "scale": 2.0, "mode": "fan_in", "distribution": "normal"}, "class_name": "VarianceScaling"}, "padding": "same", "use_bias": true, "bias_constraint": null, "name": "conv2d_128", "trainable": true, "kernel_constraint": null, "strides": [1, 1]}, "class_name": "Conv2D"}, {"name": "batch_normalization_128", "inbound_nodes": [[["conv2d_128", 0, 0, {}]]], "config": {"axis": -1, "epsilon": 0.001, "gamma_initializer": {"config": {}, "class_name": "Ones"}, "center": true, "scale": true, "moving_mean_initializer": {"config": {}, "class_name": "Zeros"}, "beta_regularizer": null, "gamma_constraint": null, "momentum": 0.99, "name": "batch_normalization_128", "trainable": true, "moving_variance_initializer": {"config": {}, "class_name": "Ones"}, "beta_constraint": null, "gamma_regularizer": null, "beta_initializer": {"config": {}, "class_name": "Zeros"}}, "class_name": "BatchNormalization"}, {"name": "activation_128", "inbound_nodes": [[["batch_normalization_128", 0, 0, {}]]], "config": {"name": "activation_128", "trainable": true, "activation": "relu"}, "class_name": "Activation"}, {"name": "max_pooling2d_28", "inbound_nodes": [[["activation_128", 0, 0, {}]]], "config": {"pool_size": [2, 2], "name": "max_pooling2d_28", "data_format": "channels_last", "trainable": true, "padding": "valid", "strides": [2, 2]}, "class_name": "MaxPooling2D"}, {"name": "conv2d_129", "inbound_nodes": [[["max_pooling2d_28", 0, 0, {}]]], "config": {"dilation_rate": [1, 1], "filters": 64, "activity_regularizer": null, "kernel_size": [3, 3], "activation": "linear", "bias_initializer": {"config": {}, "class_name": "Zeros"}, "data_format": "channels_last", "bias_regularizer": null, "kernel_regularizer": null, "kernel_initializer": {"config": {"seed": null, "scale": 2.0, "mode": "fan_in", "distribution": "normal"}, "class_name": "VarianceScaling"}, "padding": "same", "use_bias": true, "bias_constraint": null, "name": "conv2d_129", "trainable": true, "kernel_constraint": null, "strides": [1, 1]}, "class_name": "Conv2D"}, {"name": "batch_normalization_129", "inbound_nodes": [[["conv2d_129", 0, 0, {}]]], "config": {"axis": -1, "epsilon": 0.001, "gamma_initializer": {"config": {}, "class_name": "Ones"}, "center": true, "scale": true, "moving_mean_initializer": {"config": {}, "class_name": "Zeros"}, "beta_regularizer": null, "gamma_constraint": null, "momentum": 0.99, "name": "batch_normalization_129", "trainable": true, "moving_variance_initializer": {"config": {}, "class_name": "Ones"}, "beta_constraint": null, "gamma_regularizer": null, "beta_initializer": {"config": {}, "class_name": "Zeros"}}, "class_name": "BatchNormalization"}, {"name": "activation_129", "inbound_nodes": [[["batch_normalization_129", 0, 0, {}]]], "config": {"name": "activation_129", "trainable": true, "activation": "relu"}, "class_name": "Activation"}, {"name": "conv2d_130", "inbound_nodes": [[["activation_129", 0, 0, {}]]], "config": {"dilation_rate": [1, 1], "filters": 64, "activity_regularizer": null, "kernel_size": [3, 3], "activation": "linear", "bias_initializer": {"config": {}, "class_name": "Zeros"}, "data_format": "channels_last", "bias_regularizer": null, "kernel_regularizer": null, "kernel_initializer": {"config": {"seed": null, "scale": 2.0, "mode": "fan_in", "distribution": "normal"}, "class_name": "VarianceScaling"}, "padding": "same", "use_bias": true, "bias_constraint": null, "name": "conv2d_130", "trainable": true, "kernel_constraint": null, "strides": [1, 1]}, "class_name": "Conv2D"}, {"name": "batch_normalization_130", "inbound_nodes": [[["conv2d_130", 0, 0, {}]]], "config": {"axis": -1, "epsilon": 0.001, "gamma_initializer": {"config": {}, "class_name": "Ones"}, "center": true, "scale": true, "moving_mean_initializer": {"config": {}, "class_name": "Zeros"}, "beta_regularizer": null, "gamma_constraint": null, "momentum": 0.99, "name": "batch_normalization_130", "trainable": true, "moving_variance_initializer": {"config": {}, "class_name": "Ones"}, "beta_constraint": null, "gamma_regularizer": null, "beta_initializer": {"config": {}, "class_name": "Zeros"}}, "class_name": "BatchNormalization"}, {"name": "activation_130", "inbound_nodes": [[["batch_normalization_130", 0, 0, {}]]], "config": {"name": "activation_130", "trainable": true, "activation": "relu"}, "class_name": "Activation"}, {"name": "max_pooling2d_29", "inbound_nodes": [[["activation_130", 0, 0, {}]]], "config": {"pool_size": [2, 2], "name": "max_pooling2d_29", "data_format": "channels_last", "trainable": true, "padding": "valid", "strides": [2, 2]}, "class_name": "MaxPooling2D"}, {"name": "conv2d_131", "inbound_nodes": [[["max_pooling2d_29", 0, 0, {}]]], "config": {"dilation_rate": [1, 1], "filters": 128, "activity_regularizer": null, "kernel_size": [3, 3], "activation": "linear", "bias_initializer": {"config": {}, "class_name": "Zeros"}, "data_format": "channels_last", "bias_regularizer": null, "kernel_regularizer": null, "kernel_initializer": {"config": {"seed": null, "scale": 2.0, "mode": "fan_in", "distribution": "normal"}, "class_name": "VarianceScaling"}, "padding": "same", "use_bias": true, "bias_constraint": null, "name": "conv2d_131", "trainable": true, "kernel_constraint": null, "strides": [1, 1]}, "class_name": "Conv2D"}, {"name": "batch_normalization_131", "inbound_nodes": [[["conv2d_131", 0, 0, {}]]], "config": {"axis": -1, "epsilon": 0.001, "gamma_initializer": {"config": {}, "class_name": "Ones"}, "center": true, "scale": true, "moving_mean_initializer": {"config": {}, "class_name": "Zeros"}, "beta_regularizer": null, "gamma_constraint": null, "momentum": 0.99, "name": "batch_normalization_131", "trainable": true, "moving_variance_initializer": {"config": {}, "class_name": "Ones"}, "beta_constraint": null, "gamma_regularizer": null, "beta_initializer": {"config": {}, "class_name": "Zeros"}}, "class_name": "BatchNormalization"}, {"name": "activation_131", "inbound_nodes": [[["batch_normalization_131", 0, 0, {}]]], "config": {"name": "activation_131", "trainable": true, "activation": "relu"}, "class_name": "Activation"}, {"name": "conv2d_132", "inbound_nodes": [[["activation_131", 0, 0, {}]]], "config": {"dilation_rate": [1, 1], "filters": 128, "activity_regularizer": null, "kernel_size": [3, 3], "activation": "linear", "bias_initializer": {"config": {}, "class_name": "Zeros"}, "data_format": "channels_last", "bias_regularizer": null, "kernel_regularizer": null, "kernel_initializer": {"config": {"seed": null, "scale": 2.0, "mode": "fan_in", "distribution": "normal"}, "class_name": "VarianceScaling"}, "padding": "same", "use_bias": true, "bias_constraint": null, "name": "conv2d_132", "trainable": true, "kernel_constraint": null, "strides": [1, 1]}, "class_name": "Conv2D"}, {"name": "batch_normalization_132", "inbound_nodes": [[["conv2d_132", 0, 0, {}]]], "config": {"axis": -1, "epsilon": 0.001, "gamma_initializer": {"config": {}, "class_name": "Ones"}, "center": true, "scale": true, "moving_mean_initializer": {"config": {}, "class_name": "Zeros"}, "beta_regularizer": null, "gamma_constraint": null, "momentum": 0.99, "name": "batch_normalization_132", "trainable": true, "moving_variance_initializer": {"config": {}, "class_name": "Ones"}, "beta_constraint": null, "gamma_regularizer": null, "beta_initializer": {"config": {}, "class_name": "Zeros"}}, "class_name": "BatchNormalization"}, {"name": "activation_132", "inbound_nodes": [[["batch_normalization_132", 0, 0, {}]]], "config": {"name": "activation_132", "trainable": true, "activation": "relu"}, "class_name": "Activation"}, {"name": "max_pooling2d_30", "inbound_nodes": [[["activation_132", 0, 0, {}]]], "config": {"pool_size": [2, 2], "name": "max_pooling2d_30", "data_format": "channels_last", "trainable": true, "padding": "valid", "strides": [2, 2]}, "class_name": "MaxPooling2D"}, {"name": "conv2d_133", "inbound_nodes": [[["max_pooling2d_30", 0, 0, {}]]], "config": {"dilation_rate": [1, 1], "filters": 256, "activity_regularizer": null, "kernel_size": [3, 3], "activation": "linear", "bias_initializer": {"config": {}, "class_name": "Zeros"}, "data_format": "channels_last", "bias_regularizer": null, "kernel_regularizer": null, "kernel_initializer": {"config": {"seed": null, "scale": 2.0, "mode": "fan_in", "distribution": "normal"}, "class_name": "VarianceScaling"}, "padding": "same", "use_bias": true, "bias_constraint": null, "name": "conv2d_133", "trainable": true, "kernel_constraint": null, "strides": [1, 1]}, "class_name": "Conv2D"}, {"name": "batch_normalization_133", "inbound_nodes": [[["conv2d_133", 0, 0, {}]]], "config": {"axis": -1, "epsilon": 0.001, "gamma_initializer": {"config": {}, "class_name": "Ones"}, "center": true, "scale": true, "moving_mean_initializer": {"config": {}, "class_name": "Zeros"}, "beta_regularizer": null, "gamma_constraint": null, "momentum": 0.99, "name": "batch_normalization_133", "trainable": true, "moving_variance_initializer": {"config": {}, "class_name": "Ones"}, "beta_constraint": null, "gamma_regularizer": null, "beta_initializer": {"config": {}, "class_name": "Zeros"}}, "class_name": "BatchNormalization"}, {"name": "activation_133", "inbound_nodes": [[["batch_normalization_133", 0, 0, {}]]], "config": {"name": "activation_133", "trainable": true, "activation": "relu"}, "class_name": "Activation"}, {"name": "conv2d_134", "inbound_nodes": [[["activation_133", 0, 0, {}]]], "config": {"dilation_rate": [1, 1], "filters": 256, "activity_regularizer": null, "kernel_size": [3, 3], "activation": "linear", "bias_initializer": {"config": {}, "class_name": "Zeros"}, "data_format": "channels_last", "bias_regularizer": null, "kernel_regularizer": null, "kernel_initializer": {"config": {"seed": null, "scale": 2.0, "mode": "fan_in", "distribution": "normal"}, "class_name": "VarianceScaling"}, "padding": "same", "use_bias": true, "bias_constraint": null, "name": "conv2d_134", "trainable": true, "kernel_constraint": null, "strides": [1, 1]}, "class_name": "Conv2D"}, {"name": "batch_normalization_134", "inbound_nodes": [[["conv2d_134", 0, 0, {}]]], "config": {"axis": -1, "epsilon": 0.001, "gamma_initializer": {"config": {}, "class_name": "Ones"}, "center": true, "scale": true, "moving_mean_initializer": {"config": {}, "class_name": "Zeros"}, "beta_regularizer": null, "gamma_constraint": null, "momentum": 0.99, "name": "batch_normalization_134", "trainable": true, "moving_variance_initializer": {"config": {}, "class_name": "Ones"}, "beta_constraint": null, "gamma_regularizer": null, "beta_initializer": {"config": {}, "class_name": "Zeros"}}, "class_name": "BatchNormalization"}, {"name": "activation_134", "inbound_nodes": [[["batch_normalization_134", 0, 0, {}]]], "config": {"name": "activation_134", "trainable": true, "activation": "relu"}, "class_name": "Activation"}, {"name": "dropout_10", "inbound_nodes": [[["activation_134", 0, 0, {}]]], "config": {"noise_shape": null, "name": "dropout_10", "trainable": true, "rate": 0.2, "seed": null}, "class_name": "Dropout"}, {"name": "conv2d_transpose_28", "inbound_nodes": [[["dropout_10", 0, 0, {}]]], "config": {"dilation_rate": [1, 1], "filters": 128, "activity_regularizer": null, "kernel_size": [2, 2], "activation": "linear", "data_format": "channels_last", "bias_regularizer": null, "kernel_regularizer": null, "kernel_initializer": {"config": {"seed": null, "scale": 1.0, "mode": "fan_avg", "distribution": "uniform"}, "class_name": "VarianceScaling"}, "padding": "same", "output_padding": null, "use_bias": true, "trainable": true, "bias_constraint": null, "name": "conv2d_transpose_28", "bias_initializer": {"config": {}, "class_name": "Zeros"}, "kernel_constraint": null, "strides": [2, 2]}, "class_name": "Conv2DTranspose"}, {"name": "concatenate_28", "inbound_nodes": [[["conv2d_transpose_28", 0, 0, {}], ["activation_132", 0, 0, {}]]], "config": {"axis": -1, "name": "concatenate_28", "trainable": true}, "class_name": "Concatenate"}, {"name": "conv2d_135", "inbound_nodes": [[["concatenate_28", 0, 0, {}]]], "config": {"dilation_rate": [1, 1], "filters": 128, "activity_regularizer": null, "kernel_size": [3, 3], "activation": "linear", "bias_initializer": {"config": {}, "class_name": "Zeros"}, "data_format": "channels_last", "bias_regularizer": null, "kernel_regularizer": null, "kernel_initializer": {"config": {"seed": null, "scale": 2.0, "mode": "fan_in", "distribution": "normal"}, "class_name": "VarianceScaling"}, "padding": "same", "use_bias": true, "bias_constraint": null, "name": "conv2d_135", "trainable": true, "kernel_constraint": null, "strides": [1, 1]}, "class_name": "Conv2D"}, {"name": "batch_normalization_135", "inbound_nodes": [[["conv2d_135", 0, 0, {}]]], "config": {"axis": -1, "epsilon": 0.001, "gamma_initializer": {"config": {}, "class_name": "Ones"}, "center": true, "scale": true, "moving_mean_initializer": {"config": {}, "class_name": "Zeros"}, "beta_regularizer": null, "gamma_constraint": null, "momentum": 0.99, "name": "batch_normalization_135", "trainable": true, "moving_variance_initializer": {"config": {}, "class_name": "Ones"}, "beta_constraint": null, "gamma_regularizer": null, "beta_initializer": {"config": {}, "class_name": "Zeros"}}, "class_name": "BatchNormalization"}, {"name": "activation_135", "inbound_nodes": [[["batch_normalization_135", 0, 0, {}]]], "config": {"name": "activation_135", "trainable": true, "activation": "relu"}, "class_name": "Activation"}, {"name": "conv2d_136", "inbound_nodes": [[["activation_135", 0, 0, {}]]], "config": {"dilation_rate": [1, 1], "filters": 128, "activity_regularizer": null, "kernel_size": [3, 3], "activation": "linear", "bias_initializer": {"config": {}, "class_name": "Zeros"}, "data_format": "channels_last", "bias_regularizer": null, "kernel_regularizer": null, "kernel_initializer": {"config": {"seed": null, "scale": 2.0, "mode": "fan_in", "distribution": "normal"}, "class_name": "VarianceScaling"}, "padding": "same", "use_bias": true, "bias_constraint": null, "name": "conv2d_136", "trainable": true, "kernel_constraint": null, "strides": [1, 1]}, "class_name": "Conv2D"}, {"name": "batch_normalization_136", "inbound_nodes": [[["conv2d_136", 0, 0, {}]]], "config": {"axis": -1, "epsilon": 0.001, "gamma_initializer": {"config": {}, "class_name": "Ones"}, "center": true, "scale": true, "moving_mean_initializer": {"config": {}, "class_name": "Zeros"}, "beta_regularizer": null, "gamma_constraint": null, "momentum": 0.99, "name": "batch_normalization_136", "trainable": true, "moving_variance_initializer": {"config": {}, "class_name": "Ones"}, "beta_constraint": null, "gamma_regularizer": null, "beta_initializer": {"config": {}, "class_name": "Zeros"}}, "class_name": "BatchNormalization"}, {"name": "activation_136", "inbound_nodes": [[["batch_normalization_136", 0, 0, {}]]], "config": {"name": "activation_136", "trainable": true, "activation": "relu"}, "class_name": "Activation"}, {"name": "conv2d_transpose_29", "inbound_nodes": [[["activation_136", 0, 0, {}]]], "config": {"dilation_rate": [1, 1], "filters": 64, "activity_regularizer": null, "kernel_size": [2, 2], "activation": "linear", "data_format": "channels_last", "bias_regularizer": null, "kernel_regularizer": null, "kernel_initializer": {"config": {"seed": null, "scale": 1.0, "mode": "fan_avg", "distribution": "uniform"}, "class_name": "VarianceScaling"}, "padding": "same", "output_padding": null, "use_bias": true, "trainable": true, "bias_constraint": null, "name": "conv2d_transpose_29", "bias_initializer": {"config": {}, "class_name": "Zeros"}, "kernel_constraint": null, "strides": [2, 2]}, "class_name": "Conv2DTranspose"}, {"name": "concatenate_29", "inbound_nodes": [[["conv2d_transpose_29", 0, 0, {}], ["activation_130", 0, 0, {}]]], "config": {"axis": -1, "name": "concatenate_29", "trainable": true}, "class_name": "Concatenate"}, {"name": "conv2d_137", "inbound_nodes": [[["concatenate_29", 0, 0, {}]]], "config": {"dilation_rate": [1, 1], "filters": 64, "activity_regularizer": null, "kernel_size": [3, 3], "activation": "linear", "bias_initializer": {"config": {}, "class_name": "Zeros"}, "data_format": "channels_last", "bias_regularizer": null, "kernel_regularizer": null, "kernel_initializer": {"config": {"seed": null, "scale": 2.0, "mode": "fan_in", "distribution": "normal"}, "class_name": "VarianceScaling"}, "padding": "same", "use_bias": true, "bias_constraint": null, "name": "conv2d_137", "trainable": true, "kernel_constraint": null, "strides": [1, 1]}, "class_name": "Conv2D"}, {"name": "batch_normalization_137", "inbound_nodes": [[["conv2d_137", 0, 0, {}]]], "config": {"axis": -1, "epsilon": 0.001, "gamma_initializer": {"config": {}, "class_name": "Ones"}, "center": true, "scale": true, "moving_mean_initializer": {"config": {}, "class_name": "Zeros"}, "beta_regularizer": null, "gamma_constraint": null, "momentum": 0.99, "name": "batch_normalization_137", "trainable": true, "moving_variance_initializer": {"config": {}, "class_name": "Ones"}, "beta_constraint": null, "gamma_regularizer": null, "beta_initializer": {"config": {}, "class_name": "Zeros"}}, "class_name": "BatchNormalization"}, {"name": "activation_137", "inbound_nodes": [[["batch_normalization_137", 0, 0, {}]]], "config": {"name": "activation_137", "trainable": true, "activation": "relu"}, "class_name": "Activation"}, {"name": "conv2d_138", "inbound_nodes": [[["activation_137", 0, 0, {}]]], "config": {"dilation_rate": [1, 1], "filters": 64, "activity_regularizer": null, "kernel_size": [3, 3], "activation": "linear", "bias_initializer": {"config": {}, "class_name": "Zeros"}, "data_format": "channels_last", "bias_regularizer": null, "kernel_regularizer": null, "kernel_initializer": {"config": {"seed": null, "scale": 2.0, "mode": "fan_in", "distribution": "normal"}, "class_name": "VarianceScaling"}, "padding": "same", "use_bias": true, "bias_constraint": null, "name": "conv2d_138", "trainable": true, "kernel_constraint": null, "strides": [1, 1]}, "class_name": "Conv2D"}, {"name": "batch_normalization_138", "inbound_nodes": [[["conv2d_138", 0, 0, {}]]], "config": {"axis": -1, "epsilon": 0.001, "gamma_initializer": {"config": {}, "class_name": "Ones"}, "center": true, "scale": true, "moving_mean_initializer": {"config": {}, "class_name": "Zeros"}, "beta_regularizer": null, "gamma_constraint": null, "momentum": 0.99, "name": "batch_normalization_138", "trainable": true, "moving_variance_initializer": {"config": {}, "class_name": "Ones"}, "beta_constraint": null, "gamma_regularizer": null, "beta_initializer": {"config": {}, "class_name": "Zeros"}}, "class_name": "BatchNormalization"}, {"name": "activation_138", "inbound_nodes": [[["batch_normalization_138", 0, 0, {}]]], "config": {"name": "activation_138", "trainable": true, "activation": "relu"}, "class_name": "Activation"}, {"name": "conv2d_transpose_30", "inbound_nodes": [[["activation_138", 0, 0, {}]]], "config": {"dilation_rate": [1, 1], "filters": 32, "activity_regularizer": null, "kernel_size": [2, 2], "activation": "linear", "data_format": "channels_last", "bias_regularizer": null, "kernel_regularizer": null, "kernel_initializer": {"config": {"seed": null, "scale": 1.0, "mode": "fan_avg", "distribution": "uniform"}, "class_name": "VarianceScaling"}, "padding": "same", "output_padding": null, "use_bias": true, "trainable": true, "bias_constraint": null, "name": "conv2d_transpose_30", "bias_initializer": {"config": {}, "class_name": "Zeros"}, "kernel_constraint": null, "strides": [2, 2]}, "class_name": "Conv2DTranspose"}, {"name": "concatenate_30", "inbound_nodes": [[["conv2d_transpose_30", 0, 0, {}], ["activation_128", 0, 0, {}]]], "config": {"axis": -1, "name": "concatenate_30", "trainable": true}, "class_name": "Concatenate"}, {"name": "conv2d_139", "inbound_nodes": [[["concatenate_30", 0, 0, {}]]], "config": {"dilation_rate": [1, 1], "filters": 32, "activity_regularizer": null, "kernel_size": [3, 3], "activation": "linear", "bias_initializer": {"config": {}, "class_name": "Zeros"}, "data_format": "channels_last", "bias_regularizer": null, "kernel_regularizer": null, "kernel_initializer": {"config": {"seed": null, "scale": 2.0, "mode": "fan_in", "distribution": "normal"}, "class_name": "VarianceScaling"}, "padding": "same", "use_bias": true, "bias_constraint": null, "name": "conv2d_139", "trainable": true, "kernel_constraint": null, "strides": [1, 1]}, "class_name": "Conv2D"}, {"name": "batch_normalization_139", "inbound_nodes": [[["conv2d_139", 0, 0, {}]]], "config": {"axis": -1, "epsilon": 0.001, "gamma_initializer": {"config": {}, "class_name": "Ones"}, "center": true, "scale": true, "moving_mean_initializer": {"config": {}, "class_name": "Zeros"}, "beta_regularizer": null, "gamma_constraint": null, "momentum": 0.99, "name": "batch_normalization_139", "trainable": true, "moving_variance_initializer": {"config": {}, "class_name": "Ones"}, "beta_constraint": null, "gamma_regularizer": null, "beta_initializer": {"config": {}, "class_name": "Zeros"}}, "class_name": "BatchNormalization"}, {"name": "activation_139", "inbound_nodes": [[["batch_normalization_139", 0, 0, {}]]], "config": {"name": "activation_139", "trainable": true, "activation": "relu"}, "class_name": "Activation"}, {"name": "conv2d_140", "inbound_nodes": [[["activation_139", 0, 0, {}]]], "config": {"dilation_rate": [1, 1], "filters": 32, "activity_regularizer": null, "kernel_size": [3, 3], "activation": "linear", "bias_initializer": {"config": {}, "class_name": "Zeros"}, "data_format": "channels_last", "bias_regularizer": null, "kernel_regularizer": null, "kernel_initializer": {"config": {"seed": null, "scale": 2.0, "mode": "fan_in", "distribution": "normal"}, "class_name": "VarianceScaling"}, "padding": "same", "use_bias": true, "bias_constraint": null, "name": "conv2d_140", "trainable": true, "kernel_constraint": null, "strides": [1, 1]}, "class_name": "Conv2D"}, {"name": "batch_normalization_140", "inbound_nodes": [[["conv2d_140", 0, 0, {}]]], "config": {"axis": -1, "epsilon": 0.001, "gamma_initializer": {"config": {}, "class_name": "Ones"}, "center": true, "scale": true, "moving_mean_initializer": {"config": {}, "class_name": "Zeros"}, "beta_regularizer": null, "gamma_constraint": null, "momentum": 0.99, "name": "batch_normalization_140", "trainable": true, "moving_variance_initializer": {"config": {}, "class_name": "Ones"}, "beta_constraint": null, "gamma_regularizer": null, "beta_initializer": {"config": {}, "class_name": "Zeros"}}, "class_name": "BatchNormalization"}, {"name": "activation_140", "inbound_nodes": [[["batch_normalization_140", 0, 0, {}]]], "config": {"name": "activation_140", "trainable": true, "activation": "relu"}, "class_name": "Activation"}, {"name": "output_mask", "inbound_nodes": [[["activation_140", 0, 0, {}]]], "config": {"dilation_rate": [1, 1], "filters": 1, "activity_regularizer": null, "kernel_size": [1, 1], "activation": "sigmoid", "bias_initializer": {"config": {}, "class_name": "Zeros"}, "data_format": "channels_last", "bias_regularizer": null, "kernel_regularizer": null, "kernel_initializer": {"config": {"seed": null, "scale": 2.0, "mode": "fan_in", "distribution": "normal"}, "class_name": "VarianceScaling"}, "padding": "valid", "use_bias": true, "bias_constraint": null, "name": "output_mask", "trainable": true, "kernel_constraint": null, "strides": [1, 1]}, "class_name": "Conv2D"}]}, "backend": "tensorflow", "class_name": "Model"}